trained_altec/resnet18/add_1/add_1_rpp_8_8Bits_tensor_weights.npy (npy, 16768 bytes, 1 tensors)

array f4 [65, 64]
000000 86 93 87 3d fc be c2 3d db 61 19 bd be c3 4e be
       0.06619935 0.09509084 -0.037446838 -0.20191857
000010 81 39 42 3c ef be 81 3c db 53 f7 bd 78 e2 01 3d
       0.01185453 0.015838115 -0.12076541 0.031710118
000020 a8 30 c4 3c bc 6e a5 bd ec 69 ff bd 05 12 86 bd
       0.023948982 -0.080777615 -0.12471375 -0.06546406
000030 93 58 a8 be d0 71 b8 bc 8f 7e 6c 3c ab a4 20 3e
       -0.32880077 -0.022515208 0.014434471 0.15687816
000040 55 e7 12 be 63 84 e8 3d 67 c3 44 3d f1 39 c2 3c
       -0.14346059 0.11353376 0.048037913 0.02370927
000050 80 e8 43 bc 53 74 91 3c 4e de 70 be 92 6b 4d be
       -0.011957288 0.017755663 -0.23522303 -0.20060566
000060 ff 60 a4 3d c4 ff 6c 3d d2 3f 60 bd 19 4b cf 3e
       0.08026313 0.057861105 -0.054748364 0.40486982
000070 bf 93 98 3d cd 70 e0 3a 3b 60 2b be 90 80 51 3e
       0.07450055 0.0017123461 -0.16735928 0.20459199
000080 2f 9a c4 bd 32 7e 5a bd b5 15 1f be 7b a4 e4 bd
       -0.09599721 -0.053343005 -0.15535624 -0.11164185
000090 50 41 4b bd cd 60 80 3e 93 95 13 bb 1d 53 59 bd
       -0.049622834 0.25073853 -0.0022519573 -0.05305778
0000a0 5f c9 ae bc 4d 67 98 3a 49 ab 98 3d c3 66 0d 3e
       -0.021336256 0.0011627466 0.07454545 0.13808732
0000b0 ae cf db bd 38 ac bb 3c 1f 8d 7b 3e 83 e8 a0 bd
       -0.10732971 0.022909269 0.24565552 -0.07856848
0000c0 c9 4f e4 bd 64 87 32 3e 4e 79 f3 bd c3 ce 34 be
       -0.1114803 0.1743446 -0.118883714 -0.17656998
0000d0 1b 4d c5 3d 1e 8f a5 3e 09 18 19 3e 81 d0 28 bf
       0.09633847 0.32335752 0.14950575 -0.6594315
0000e0 1a 32 58 bd ac d5 02 3d 0a c7 46 be 9a 68 0e 3d
       -0.052782156 0.031942055 -0.19411865 0.034767725
0000f0 50 0d 0d 3e 20 a5 31 be 65 12 37 bc 1d 84 29 bd
       0.1377461 -0.17348146 -0.011173819 -0.04138576
000100 48 85 0d bd 8d ed 22 3e 00 b9 00 3e 21 50 86 3d
       -0.034550935 0.15910931 0.12570572 0.06558252
000110 2b ba 62 3e 5c e9 15 3e 7f e3 4c 3e 37 67 32 3e
       0.2214133 0.14639801 0.20008658 0.17422186
000120 2f 1e 3d 3e c9 6d 99 3d 75 a6 cf 3d aa 22 0a 3e
       0.18468545 0.07491643 0.10139171 0.13489786
000130 6c 7c 94 bd 21 bf 93 3d ac 38 27 bd 92 6f 06 bd
       -0.07250294 0.07214189 -0.04082553 -0.032821245
000140 96 ee 31 3e 81 e9 0e be 08 50 b8 bc 03 92 06 3e
       0.1737617 -0.13956262 -0.0224991 0.13141637
000150 e7 db cb 3d fd 8f ba 3d 9f 3e 9d 3d c4 2e 84 bd
       0.099540524 0.09109495 0.0767796 -0.06454232
000160 ed 3f 9e 3c fe 72 75 bd ce 15 38 3d e5 c2 3e 3e
       0.019317592 -0.05992412 0.04494267 0.18629034
000170 58 65 6b bc bc 83 88 bd 2a 5a 78 be 42 25 eb bc
       -0.014367424 -0.06665751 -0.24253145 -0.02870429
000180 d0 1a ae bb 8d 02 d3 3a cb f9 33 3d 92 ad 07 3e
       -0.005313255 0.0016098783 0.043939393 0.13249806
000190 27 91 3d 3e c9 90 45 be ad 81 03 3b 70 33 78 3d
       0.18512402 -0.19293512 0.0020066306 0.06059593
0001a0 db 65 09 3e 36 1e d5 3c 34 92 95 bd bd 97 02 3e
       0.13417761 0.026015382 -0.07303277 0.12753196
0001b0 54 01 37 3d b1 02 2b 3d 1e 48 18 bd fa c0 5e 3d
       0.044679 0.041750614 -0.03717815 0.054383256
0001c0 a4 c1 24 3e e0 5f 3c be 3e f7 1f 3e 25 8e 9e 3d
       0.16089493 -0.18395948 0.15621659 0.07741956
0001d0 fe 4a 06 3e da 39 f7 bd 87 27 8f bd e6 0f 6e 3e
       0.13114545 -0.12071581 -0.06989961 0.23248252
0001e0 e5 42 60 3d 39 96 44 3d ca c1 30 bb e8 70 93 3d
       0.054751296 0.047994826 -0.0026970976 0.071992695
0001f0 a6 f1 14 be fb 01 cf bd 88 60 27 3d fc 14 a7 bc
       -0.14545307 -0.101077996 0.040863544 -0.020395748
000200 72 ec c8 bd 18 f4 45 3d 1c 08 d2 bd 9d 15 3d be
       -0.09810723 0.04832849 -0.10255453 -0.18465276
000210 b9 c3 76 be 79 34 42 3e d3 2d a4 bd d4 01 9b 3c
       -0.240981 0.18965329 -0.08016553 0.01892177
000220 47 20 e0 3c c4 73 2a 3e 78 65 06 3d bd 01 74 3c
       0.027359141 0.16645724 0.032811612 0.014892993
000230 11 5a 36 3e 5e 5c 55 3e db 5f 97 3d be e4 ee 3d
       0.17807795 0.20836017 0.0739133 0.11664723
000240 12 89 3c 3d 42 44 24 3d a6 c5 51 bd cb bd 92 3d
       0.046029158 0.04010416 -0.051213883 0.071651064
000250 64 d3 50 be c1 0b 80 3d bc aa 5c 3d 97 3b b0 3d
       -0.20393139 0.06252242 0.053873762 0.08605116
000260 70 97 36 bd 9a f2 bc 3e c7 20 22 be cf 13 80 be
       -0.044578016 0.3690384 -0.15832816 -0.25015113
000270 7a ff 08 3e b6 ff 10 be f6 e9 43 be fd cb 08 3e
       0.13378707 -0.14160046 -0.19132218 0.13359065
000280 25 8e b3 bd a6 f9 3f 3c ab 13 21 3e 2e d6 79 bd
       -0.08767346 0.011717236 0.15730159 -0.060995273
000290 5e d2 db 3c 0b 88 1e 3e a8 ec 5d 3e 1e e7 46 be
       0.02683371 0.15481584 0.21672308 -0.19424102
0002a0 19 f3 a7 be ad bf 57 3d a1 d4 da 3d d4 9a 50 bd
       -0.32802656 0.05267303 0.10685087 -0.050928906
0002b0 b5 7c 00 3b f7 5a 33 bd cc c8 6a be 8c fa 61 bd
       0.0019605581 -0.043787923 -0.2292816 -0.05517058
0002c0 23 fc 0d bf aa cb a7 3d e2 87 dc 3c 81 ad 12 bd
       -0.55462855 0.08193143 0.026920263 -0.035809997
0002d0 89 d6 56 3d 85 33 be 3d 36 3e 10 3e 39 50 a6 bc
       0.05245069 0.0928717 0.14086232 -0.020301925
0002e0 02 f2 8d bd e8 e2 23 3e 49 0f dd 3d b0 0b 8e bb
       -0.06930925 0.16004527 0.10793931 -0.0043348894
0002f0 00 f7 7c bb 52 a0 0e 3b 51 ea 49 3e 38 85 2b 3e
       -0.0038599372 0.0021763039 0.19718291 0.16750038
000300 71 3b ee 3b 93 c1 5a 3e b8 70 39 be 28 6d f4 3c
       0.0072702696 0.21362905 -0.18109405 0.029837206
000310 ab 44 bf 3c 4b 52 5d 3d fe 06 31 3d 3a 9e 3b 3d
       0.023348173 0.05403356 0.04321956 0.045805193
000320 17 3e 4f 3d ac c0 d4 3c 17 e6 82 3d f2 ff b2 3b
       0.050596323 0.02597078 0.063915424 0.00546264
000330 71 22 c9 3d bf a1 a7 3d fd 38 98 bd e7 a7 78 bd
       0.09821022 0.081851475 -0.07432745 -0.060707
000340 78 1d 47 bd e0 62 14 bd 30 51 15 bc cf fd 47 3d
       -0.048612088 -0.036227107 -0.009113595 0.048826035
000350 49 4d 2b bc 6e 4b 00 3d 27 c3 7e be fb dc 8b bc
       -0.010455438 0.031321935 -0.24879132 -0.017073145
000360 25 b9 e8 bb 49 9c 14 3e 28 2b a7 bd 3d a2 9e 3d
       -0.007102149 0.14512743 -0.08162528 0.07745788
000370 53 a3 35 3e 99 9d b4 bb 1a b2 95 be 7d 86 3e bd
       0.17738084 -0.005511951 -0.29237443 -0.046514977
000380 8a aa 04 3c d4 82 fa bc 76 61 1f be db 00 c8 bd
       0.0080973 -0.030579962 -0.15564522 -0.09765788
000390 06 29 d4 bc a6 51 de 3d b0 12 1e 3d 88 7e b1 bd
       -0.025898468 0.10855417 0.03859204 -0.08666712
0003a0 16 13 96 bc ee e9 23 bb bc 94 7a 3c fb 07 bb 3d
       -0.018319648 -0.002501126 0.01529425 0.091323815
0003b0 b6 ed 37 bd f2 e5 4b 3e 64 f3 0c 3e b2 6a c5 bc
       -0.044904433 0.19911936 0.13764721 -0.024098728
0003c0 97 c0 2d bd 29 4c 48 bd b4 1f 2f be 4e 4f 15 be
       -0.042419996 -0.048900757 -0.17101938 -0.14581034
0003d0 f4 a4 0b 3e ff b1 8a 3d 05 f3 37 3d 58 19 e0 3c
       0.13637143 0.06772231 0.044909496 0.027355835
0003e0 56 89 b2 bc c9 2f ad 3d ad e0 a0 bd ac c5 b0 3a
       -0.021794003 0.0845638 -0.078553535 0.0013486645
0003f0 bc 7d 67 3d 3b ca 73 bd ed a0 de 3d 30 06 00 3d
       0.056516394 -0.059519034 0.10870538 0.0312559
