trained_altec/resnet18/add_1/add_1_rpp_4_8Bits_tensor_weights.npy (npy, 16768 bytes, 1 tensors)

array f4 [65, 64]
000000 9f 1a 73 3d a0 74 b3 3d d6 78 27 bd 6c 7f 5d be
       0.05935156 0.08762479 -0.040886723 -0.21630639
000010 62 2b 28 3c 3d 02 46 3c f7 70 f4 bd e5 00 13 3d
       0.0102642495 0.012085495 -0.11935609 0.035889525
000020 32 59 f3 3c 1d 63 bb bd af 88 e7 bd a4 cb 82 bd
       0.029705618 -0.09149764 -0.11305367 -0.063864976
000030 42 a9 9c be 1a 37 69 bc c2 af 3a 3c c1 0e 30 3e
       -0.30597883 -0.014234329 0.011394443 0.17193128
000040 af c2 12 be d7 a8 db 3d 6d db 47 3d 5e 3b b9 3c
       -0.14332078 0.10725563 0.048793245 0.022611316
000050 72 ca 05 bc 2c 28 c3 3c 36 4f 83 be e2 ab 41 be
       -0.0081659425 0.023822866 -0.2564637 -0.18913224
000060 6d 54 96 3d d9 4e 5d 3d fe a0 73 bd ef f8 c3 3e
       0.07340322 0.054030273 -0.059479706 0.3827586
000070 42 a4 a0 3d a3 f1 ff bb c7 03 33 be 2a 61 59 3e
       0.0784383 -0.0078107878 -0.1748191 0.21228471
000080 94 e8 c0 bd d9 a3 67 bd da b9 22 be 2f f7 e3 bd
       -0.09419361 -0.05655274 -0.15891209 -0.11131131
000090 63 76 38 bd e1 a3 79 3e 06 cf 89 3c 25 15 38 bd
       -0.045034777 0.24378921 0.01682235 -0.04494204
0000a0 0b d5 bd bc f0 d2 8f 3b 3b 8c 8b 3d 68 9d 01 3e
       -0.023172876 0.0043891594 0.06813856 0.12657702
0000b0 9d af d4 bd 81 67 e9 3c 4c 9b 7d 3e 65 30 8e bd
       -0.10385058 0.028491737 0.24766272 -0.06942824
0000c0 ad 6b e1 bd f6 38 40 3e 9a 6a e8 bd 8b 1e 3a be
       -0.11006866 0.18771729 -0.11348458 -0.18175714
0000d0 83 eb ce 3d 1c 60 a5 3e 90 4c 14 3e c4 18 27 bf
       0.10103514 0.32299888 0.14482331 -0.65272164
0000e0 42 85 22 bd d5 73 e9 3c 05 32 40 be 28 62 18 3d
       -0.039677866 0.028497616 -0.18769081 0.037202984
0000f0 42 ac 02 3e bc e4 3d be 5a e8 fd ba e8 86 cf bc
       0.12761024 -0.18544286 -0.0019371614 -0.025332883
000100 84 fc 1f bd 57 fa 16 3e 3d 74 f1 3d f3 d2 70 3d
       -0.039059177 0.14743935 0.11789749 0.058794927
000110 ec d7 5e 3e d1 8f 0f 3e 89 0e 58 3e 64 58 2e 3e
       0.21762055 0.14019705 0.21099295 0.17025906
000120 a8 49 4f 3e b2 87 90 3d 87 0a b9 3d ad 0f 06 3e
       0.20242941 0.07057132 0.09035211 0.13091917
000130 e9 f3 92 bd 8d 33 8f 3d d5 95 55 bd 8a d4 b0 bc
       -0.071754284 0.069922544 -0.052144844 -0.021585722
000140 66 e2 3f 3e aa ce 09 be 04 e0 ca bc fd 71 00 3e
       0.18738708 -0.13457742 -0.024765022 0.12543483
000150 44 f1 e1 3d 4c d0 a7 3d d8 ce 90 3d 94 61 56 bd
       0.11032346 0.08194026 0.07070702 -0.05233915
000160 f4 78 9f 3c 3d 01 6f bd b6 08 47 3d ca 69 2e 3e
       0.019466855 -0.05835079 0.04859229 0.17032543
000170 75 ac a2 bc 23 19 81 bd 9c 14 6d be c4 55 cb bc
       -0.019857625 -0.063036226 -0.23152393 -0.02482117
000180 08 05 1b bc ea e5 29 3b d7 99 0e 3d ed 31 f4 3d
       -0.009461649 0.0025924393 0.03481468 0.11923585
000190 28 b6 43 3e 56 42 40 be 1a 11 74 3c 33 ad 5b 3d
       0.19112456 -0.18775305 0.014896655 0.053631973
0001a0 8f 1a f9 3d 82 f7 f3 3c 23 cf 6e bd 2f 08 fb 3d
       0.12163269 0.029781107 -0.05830301 0.1225742
0001b0 dd 7f 4b 3d ea 14 60 3d 72 af 91 bc bc 77 58 3d
       0.049682487 0.054707445 -0.017783854 0.052848563
0001c0 81 59 23 3e 3c ec 3c be 81 4a 1f 3e 67 f5 93 3d
       0.15952112 -0.18449491 0.15555765 0.07224541
0001d0 b8 d8 f2 3d 39 59 f8 bd ec 5d 86 bd 98 0d 64 3e
       0.11857742 -0.12126393 -0.06560883 0.2227081
0001e0 2c c2 48 3d 96 d7 4a 3d 3f 6e 28 bc 1a ae 91 3d
       0.0490133 0.049522005 -0.010280191 0.07113285
0001f0 8f 5a 0d be 33 44 cf bd 16 e6 1b 3d 27 93 c1 bb
       -0.13804077 -0.1012043 0.038061224 -0.0059074345
000200 ce b9 c2 bd 36 33 23 3d 3f 79 cf bd 9e 70 4c be
       -0.09508096 0.03984376 -0.10130548 -0.19964835
000210 e3 8d 7b be a9 41 46 3e 44 10 93 bd b6 d8 a7 3c
       -0.24565844 0.19360985 -0.07180837 0.020489078
000220 ee c6 0f 3d 5b fc 2c 3e 45 c8 f8 3c 5c b5 84 3c
       0.035101824 0.16893141 0.030368933 0.01619976
000230 52 4c 26 3e 5a 85 61 3e 9d 63 9c 3d 9f 8a d8 3d
       0.16240051 0.22023526 0.07636187 0.10573315
000240 45 3d 3f 3d 43 c4 27 3d a4 70 43 bd e5 2a a3 3d
       0.04668929 0.040958654 -0.047714844 0.07967166
000250 14 b8 53 be d0 1f 88 3d 31 4c 70 3d 96 be 9b 3d
       -0.20675689 0.06646693 0.05866641 0.07604711
000260 ab f7 1e bd e1 3e b0 3e 19 e6 1d be 7f dd 7d be
       -0.038810413 0.34422973 -0.15419807 -0.24791525
000270 e5 21 f8 3d f1 f7 25 be cb b1 47 be 42 ea 08 3e
       0.1211584 -0.16207863 -0.19501416 0.13370612
000280 cb f1 d0 bd 18 17 c1 ba 59 60 2f 3e a9 ec 51 bd
       -0.10202368 -0.0014731614 0.17126597 -0.051251087
000290 42 f6 db 3c 21 40 18 3e 2e 5f 59 3e f6 e5 3b be
       0.026850823 0.14868213 0.21227714 -0.18349442
0002a0 92 2e 9e be a1 0f 1a 3d 4b 25 d4 3d 71 7d 33 bd
       -0.30894905 0.03761256 0.103586756 -0.043820802
0002b0 54 9f 46 3b fd 61 02 bd 20 ab 64 be 67 d2 53 bd
       0.003030737 -0.03183173 -0.22330904 -0.051714327
0002c0 a2 c9 0d bf 03 8d 90 3d a2 03 fd 3c 27 ba 12 bd
       -0.5538579 0.07058146 0.030885521 -0.03582206
0002d0 dc 79 63 3d ee 06 bc 3d 38 b5 00 3e 51 85 67 bc
       0.055536136 0.09181009 0.1256913 -0.014130906
0002e0 5c d6 77 bd 02 36 20 3e c7 dc e0 3d 19 78 1e 3b
       -0.060507163 0.15645602 0.1097961 0.002418047
0002f0 db af 52 3a 1d da 7a 3b f3 d9 41 3e 5a 6c 37 3e
       0.0008037069 0.0038276978 0.18930797 0.17912427
000300 81 b5 f9 3b 90 dc 4e 3e dd 4d 33 be 92 1d e0 3c
       0.007620514 0.20201325 -0.17510171 0.02735785
000310 0a 4b a8 3c 85 0d 5b 3d 26 99 5a 3d 8b 04 44 3d
       0.020543594 0.05347969 0.05336871 0.047855895
000320 d2 3d 8a 3d e8 5b fb 3c cd 4e 7f 3d ed 9e 34 3c
       0.067500725 0.030683473 0.06233101 0.011024219
000330 9a 34 ab 3d ca f2 aa 3d c3 b6 95 bd 3d 7f 49 bd
       0.08359642 0.083470896 -0.0731025 -0.04919361
000340 60 8f 52 bd a8 3a 3c bd 32 bb 3b bc 27 06 57 3d
       -0.051406264 -0.045954376 -0.011458205 0.0524961
000350 a3 fb 00 bc fc ea 03 3d e8 b6 81 be 73 c0 37 bc
       -0.007872495 0.03220652 -0.2533486 -0.011215317
000360 c4 d5 2a bc 0b c2 08 3e 30 0a 96 bd ff 56 81 3d
       -0.010426942 0.13355272 -0.07326162 0.06315421
000370 73 b4 2b 3e f0 6f b1 bb d6 7d 94 be a5 f9 4c bd
       0.16768055 -0.0054149553 -0.29002255 -0.050042767
000380 de 73 0f 3c b5 d9 06 bd 0a af 1b be 74 05 c8 bd
       0.008755652 -0.032922465 -0.15203491 -0.09766665
000390 0a e8 e6 bc e2 e6 cb 3d af 08 12 3d 71 d2 98 bd
       -0.028186817 0.09956147 0.035652813 -0.074620135
0003a0 b7 6b 88 bb b8 a3 82 bb 7b 7b 27 3c 46 ad b4 3d
       -0.0041632312 -0.003986802 0.010222311 0.08822112
0003b0 9d 2c ef bc ef 4e 41 3e 9b 46 02 3e 9c ab 97 bc
       -0.029196078 0.18877767 0.12722246 -0.018514447
0003c0 f2 b1 13 bd 4c f6 80 bd cf be 21 be 9b ee 07 be
       -0.036058374 -0.062969774 -0.15795444 -0.13274615
0003d0 07 9a 11 3e 0c 1e 7d 3d be 35 52 3d 74 40 08 3d
       0.14218913 0.061796233 0.051320784 0.033264592
0003e0 3c d0 80 bc 8e 18 bd 3d dc 7a a2 bd d3 7b fb 39
       -0.015724294 0.09233199 -0.0793359 0.00047966707
0003f0 29 c2 27 3d 3a 40 83 bd 19 1f c6 3d 00 e4 dc 3c
       0.04095665 -0.064087346 0.096739 0.026964188
