trained_altec/densenet121/pool2_conv/pool2_conv_rpp_8_8Bits_tensor_weights.npy (npy, 66176 bytes, 1 tensors)

array f4 [129, 128]
-0.0300067 -0.022310387 0.32216752 -0.11831302 -0.056501802 -0.082176946 -0.14899616 0.09168383
0.3810665 -0.12332531 0.045384984 -0.31846333 0.013305681 -0.17964768 0.091418 0.18800634
0.1763878 -0.35799828 0.15165292 0.022618625 -0.009502814 -0.050803006 0.16718206 -0.20917101
0.119387634 -0.49037552 -0.018882018 -0.18289994 -0.251148 -0.09320089 0.006729907 -0.08717912
-0.18143086 0.4245823 0.020544639 0.38030437 -0.020088596 -0.020363197 0.039300136 0.22183226
0.07055613 0.021118145 0.028750798 0.20839661 0.02921183 0.4192208 0.015555793 0.17436154
-0.082565255 -0.048568074 -0.2905381 0.32323173 -0.083927155 0.23475084 -0.024589587 0.29100123
0.101459086 0.10978735 0.06098132 -0.08907321 -0.009145141 -0.07563207 0.12692255 0.011027327
-0.014173973 -0.13439539 -0.11862577 0.13278839 -0.17383185 0.15654403 -0.36438954 0.0004125613
0.32667077 -0.2693598 -0.1035307 0.09576805 -0.027810004 -0.37221938 0.19828553 0.10235577
0.11107495 -0.21177304 -0.0049865 -0.21217819 0.3514362 -0.05534192 -0.043431647 -0.079393044
-0.20438802 -0.35169095 0.07586367 -0.0377592 0.12665224 0.104997545 -0.15359937 -0.010258146
0.10788236 0.1069095 -0.45419663 -0.18625554 0.0049065985 0.034055553 -0.05305915 0.12243827
0.16739258 -0.025875336 0.25563127 -0.074226074 -0.035800338 -0.07005314 -0.31948903 -0.4144176
0.061928947 -0.40958607 -0.13951753 0.12721913 -0.04794993 -0.034658812 0.09173797 0.21731028
-0.027840586 -0.10001317 -0.7069885 -0.38500187 -0.050179537 -0.1499795 -0.1821863 -0.025305195
0.02043205 -0.0145109 -0.33763686 -0.031655464 -0.19874181 0.03239677 0.35342678 0.19712646
-0.08047272 0.07080273 0.22972867 0.020002792 0.08261647 0.02911018 0.06871265 -0.15646207
0.119688965 0.30887452 0.34246385 0.09881375 0.009486504 0.3619117 -0.15915449 0.120890476
-0.14425503 -0.46871957 0.38058046 -0.115629934 0.10299378 -0.07528913 -0.08020257 -0.0074948007
0.0964203 0.0030262265 -0.066604964 -0.1189759 -0.56949097 0.33000073 -0.16893366 0.08798739
0.07246862 0.17267248 0.19465327 -0.3722328 0.003158279 0.24378286 -0.15376242 0.11473282
-0.10602821 0.20508513 9.668963e-05 -0.11526568 -0.24378765 0.1742033 -0.2215038 0.24026123
-0.21165596 -0.1524442 -0.06349663 0.118941374 -0.0051685744 -0.085982814 0.06269732 0.063889444
-0.21807852 0.07556445 0.23256049 -0.36831108 0.34335276 0.038409293 0.113319375 0.27672675
-0.060808253 0.04474733 -0.06967791 -0.2747307 0.06522262 0.09722158 0.23135571 -0.23659673
0.30460635 0.013935182 -0.02416346 -0.26171264 -0.09361223 -0.67352355 0.04177892 0.097743854
-0.1604297 0.22747567 0.11823564 0.32428733 -0.047998928 -0.008671281 -0.16472499 -0.0920459
0.21360022 0.26410252 -0.1575183 -0.07067378 -0.12477312 -0.28528622 0.08520869 -0.011522242
-0.088365294 -0.13100639 -0.104056306 -0.34103954 0.38526934 0.18955253 0.29529184 0.081943475
0.044632252 0.03202855 0.30138153 0.12406671 0.14691629 -0.046407636 0.35181025 0.05083486
-0.45784512 0.24070176 0.6055079 0.073155046 0.27634478 -0.098004974 0.25821105 0.45737615
00000000: 9cd0 f5bc 46c4 b6bc 24f3 a43e 194e f2bd
00000010: 6f6e 67bd 634c a8bd 7392 18be bbc4 bb3d
00000020: 261b c33e fb91 fcbd 9be5 393d a00d a3be
00000030: 1200 5a3c 90f5 37be 5c39 bb3d bc84 403e
00000040: 019f 343e 8d4b b7be e74a 1b3e b24a b93c
00000050: b1b1 1bbc d016 50bd c631 2b3e ed30 56be
00000060: 8181 f43d 8012 fbbe 76ae 9abc 1f4a 3bbe
00000070: 7896 80be 1ce0 bebd 8d86 dc3b f78a b2bd
00000080: 03c9 39be da62 d93e 3b4d a83c 41b7 c23e
00000090: d790 a4bc b8d0 a6bc 2ef9 203d ff27 633e
000000a0: bb7f 903d f6ff ac3c cb86 eb3c ec65 553e
000000b0: a64d ef3c 1ca4 d63e badd 7e3c d58b 323e
000000c0: f917 a9bd 51ef 46bd 69c1 94be a17e a53e
000000d0: 00e2 abbd 8662 703e 1a70 c9bc 1dfe 943e
000000e0: c8c9 cf3d 31d8 e03d 8cc7 793d 046c b6bd
000000f0: 80d5 15bc fde4 9abd fcf7 013e f6ab 343c
00000100: f439 68bc f29e 09be 11f2 f2bd aef9 073e
00000110: fa00 32be 144d 203e 4491 babe 0a4d d839
00000120: 6441 a73e 87e9 89be e707 d4bd 0a22 c43d
00000130: ced1 e3bc 8a93 bebe 5d0b 4b3e e79f d13d
00000140: 437b e33d 08db 58be cb65 a3bb 3d45 59be
00000150: 72ef b33e 36ae 62bd 62e5 31bd d298 a2bd
00000160: 184b 51be d610 b4be 695e 9b3d 64a9 1abd
00000170: 20b1 013e f408 d73d 2749 1dbe c811 28bc
00000180: 6df1 dc3d 5ef3 da3d 768c e8be c6b9 3ebe
00000190: 88c7 a03b d67d 0b3d 8d54 59bd eac0 fa3d
000001a0: f668 2b3e 83f8 d3bc 1ae2 823e d703 98bd
000001b0: 60a3 12bd 0578 8fbd 1194 a3be 8b2e d4be
000001c0: 35a9 7d3d 44b5 d1be afdd 0ebe bb45 023e
000001d0: 2567 44bd 66f6 0dbd 1ee1 bb3d 9686 5e3e
000001e0: f111 e4bc b4d3 ccbd 33fd 34bf f71e c5be
000001f0: 0f89 4dbd 3a94 19be 0c8f 3abe d74c cfbc
00000200: 1d61 a73c 20bf 6dbc bdde acbe 29a9 01bd
00000210: f982 4bbe 7ab2 043d 5bf4 b43e 85db 493e
00000220: e2ce a4bd 0601 913d fe3d 6b3e e5dc a33c
00000230: d332 a93d 7978 ee3c 38b9 8c3d 9837 20be
00000240: 7d1f f53d cd24 9e3e 6c57 af3e dd5e ca3d
00000250: 486d 1b3c 7e4c b93e 65f9 22be 6d95 f73d
00000260: 97b7 13be 03fc efbe 71db c23e 63cf ecbd
00000270: 67ee d23d 3031 9abd 3f41 a4bd f296 f5bb
00000280: 0278 c53d a853 463b 2f68 88bd a3a9 f3bd
00000290: 29ca 11bf dbf5 a83e f2fc 2cbe bc32 b43d
000002a0: 6e6a 943d 0ed1 303e 3053 473e 4c95 bebe
000002b0: 21fb 4e3b 37a2 793e e573 1dbe 0af9 ea3d
000002c0: 5125 d9bd d601 523e dac5 ca38 6a10 ecbd
000002d0: 78a3 79be 5a62 323e e4d1 62be 0a07 763e
000002e0: 57bc 58be 551a 1cbe 850a 82bd 8997 f33d
000002f0: 255d a9bb c217 b0bd 7467 803d 78d8 823d
00000300: fa4f 5fbe 89c1 9a3d 5624 6e3e 4593 bcbe
00000310: efcb af3e 1053 1d3d fd13 e83d 21af 8d3e
00000320: 1312 79bd fa48 373d 4bb3 8ebd 81a9 8cbe
00000330: 7093 853d 1c1c c73d 83e8 6c3e 6a46 72be
00000340: 5df5 9b3e 6450 643c 73f2 c5bc 33ff 85be
00000350: c5b7 bfbd 0a6c 2cbf 5f20 2b3d ee2d c83d
00000360: af47 24be 62ef 683e 8725 f23d fd08 a63e
00000370: 869a 44bd fd11 0ebc abad 28be 9082 bcbd
00000380: 04ba 5a3e 7238 873e 7a4c 21be 6abd 90bd
00000390: 0d89 ffbd 0911 92be e581 ae3d c9c7 3cbc
000003a0: ddf8 b4bd 8a26 06be 791b d5bd bc9c aebe
000003b0: 0642 c53e 0f1a 423e 7e30 973e fbd1 a73d
000003c0: 4fd0 363d 5e30 033d ae4e 9a3e b016 fe3d
000003d0: 3971 163e ef15 3ebd 7920 b43e 3738 503d
000003e0: ad6a eabe 867a 763e 9102 1b3f 50d2 953d
000003f0: 107d 8d3e d5b6 c8bd 3d34 843e 352d ea3e
