trained_altec/resnet34/add_3/add_3_rpp_8_8Bits_tensor_weights.npy (npy, 16768 bytes, 1 tensors)

array f4 [65, 64]
0	0xbce3f800	-0.027828217
1	0xbc60b8a9	-0.013715901
2	0x3e0c3a59	0.13694133
3	0xbe1beae1	-0.15226318
4	0xbc402653	-0.011727887
5	0xbd2ebd63	-0.042661082
6	0x3db437d4	0.08799711
7	0xbdc26bd8	-0.09493226
8	0xbc72d908	-0.014822252
9	0x3dcf8fc1	0.10134841
10	0xbe14f718	-0.14547384
11	0xbd4906f9	-0.049078915
12	0x3dd8c207	0.10583883
13	0xbcd58ea2	-0.02606899
14	0xbe0a52dd	-0.13508172
15	0xbad5bd31	-0.0016306994
16	0xbd2b0219	-0.041750047
17	0xbdcc218f	-0.09967338
18	0xbd2aa8f7	-0.041665044
19	0x3da49e9b	0.08038064
20	0x3c948d66	0.01813383
21	0xbdd92457	-0.106026344
22	0xbcba897b	-0.022770634
23	0x3daa08c8	0.08302456
24	0xbde1df9a	-0.11028977
25	0xbdc07605	-0.093975104
26	0xbd9ba397	-0.07599562
27	0x3e0b4514	0.1360057
28	0xbdeb661a	-0.11494084
29	0x3ea095d0	0.31364298
30	0x3d5c49c3	0.053781282
31	0x3ccc4b6e	0.024938311
32	0xbe6223e4	-0.22084004
33	0xbc37e529	-0.01122407
34	0xbce36975	-0.027760247
35	0x3da0f6c3	0.07859566
36	0x3df94416	0.121711895
37	0xbd2790a2	-0.040909417
38	0xbd851a31	-0.06499136
39	0xbc1d5844	-0.009603564
40	0xbb516dfb	-0.0031956423
41	0x3df14483	0.11780646
42	0xbc71a452	-0.01474865
43	0xbdf6fef1	-0.12060345
44	0xbd1e71b1	-0.038682643
45	0xbe0dd116	-0.13849291
46	0xbe328ca7	-0.17436467
47	0x3d941f48	0.07232529
48	0xbe43e3e7	-0.19129907
49	0xbe86828b	-0.2627147
50	0x3d562f10	0.052290976
51	0x3cea537a	0.028604258
52	0x3dedce9a	0.11611672
53	0x3d984503	0.07435038
54	0x3de98bd4	0.11403623
55	0xbdedbe1e	-0.116085276
56	0x3daa9c25	0.083305635
57	0xbdaa15fe	-0.08304976
58	0x3ded66fe	0.1159191
59	0xbe77e4ba	-0.24208346
60	0x3c8cd90e	0.017193343
61	0x3d1fde9e	0.039030664
62	0x3ea07819	0.31341627
63	0xbc588c10	-0.013216987
64	0x3e326382	0.17420772
65	0x3d1e5792	0.038657732
66	0x3d4e3267	0.050341036
67	0xbc8975fe	-0.016779896
68	0x3ccead09	0.025228994
69	0xbdd1a1e5	-0.10235957
70	0xbd691472	-0.056904264
71	0xbd176d5b	-0.036969524
72	0xbe2f1bd0	-0.17100453
73	0x3e33c441	0.17555334
74	0x3e03e55f	0.12880467
75	0xbdafba6d	-0.0858048
76	0xbd3f595a	-0.04671607
77	0xbd783dc5	-0.060605783
78	0xbe2e887d	-0.17044254
79	0xbc91b35b	-0.017785719
80	0xbd9304c1	-0.07178641
81	0x3c0d3b97	0.008620164
82	0x3e7f84f4	0.24953061
83	0x3df8b2c8	0.12143475
84	0x3d30314c	0.043015763
85	0x3f1a776c	0.60338473
86	0x3ee2f2f7	0.44325992
87	0x3f2a7217	0.6658034
88	0x3a222af2	0.0006186209
89	0x3de69669	0.11259157
90	0xbe4e947d	-0.20173831
91	0xbe097099	-0.13421859
92	0x3dfd477f	0.123671524
93	0x3eb58671	0.35454133
94	0x3d2b22a1	0.04178107
95	0x3da8ba48	0.08238655
96	0x3d4577ee	0.048210077
97	0x3d33955a	0.043843605
98	0xbdabeaa0	-0.083943605
99	0xbc8ff031	-0.017570587
100	0x3c8f0c97	0.017462058
101	0x3d895a13	0.067066334
102	0x3d10815e	0.035279624
103	0xbe569cc5	-0.2095824
104	0xbe735ccd	-0.2376587
105	0x3e4caaa2	0.19986966
106	0xbe5a8c32	-0.21342543
107	0xbea87c98	-0.32907557
108	0x3d828e27	0.0637477
109	0x3c0f475f	0.008745044
110	0x3e0a06d6	0.1347917
111	0x3e1ca0f2	0.15295771
112	0x3db4c8e1	0.08827377
113	0xbf0ff4f5	-0.5623315
114	0x3e33f2dd	0.17573114
115	0xbd226069	-0.039642725
116	0x3ce7f379	0.028314339
117	0xbe2e45cc	-0.17018813
118	0x3b17fee7	0.0023192705
119	0x3df115a4	0.11771706
120	0x3e34e57d	0.17665668
121	0xbdcaba5c	-0.098988265
122	0xbdeaa9da	-0.11458178
123	0x3e89fcb4	0.2695061
124	0x3e27630b	0.16346376
125	0xbdfc2133	-0.1231102
126	0xbe0c1758	-0.1368078
127	0xbdeb6acb	-0.114949785
128	0xbe113823	-0.1418157
129	0xbbff408d	-0.0077896775
130	0x3c16f070	0.009212598
131	0x3c8818cb	0.016613385
132	0x3d60bfc1	0.05487037
133	0xbd398d74	-0.045300916
134	0xbc1f9f8a	-0.009742627
135	0x3de7a7db	0.11311313
136	0xbd952cb6	-0.072839186
137	0xbd71190c	-0.058861777
138	0x3d9d8a6c	0.076924175
139	0xbd28caa2	-0.04120887
140	0x3cdbbcd7	0.026823444
141	0x3b347a0a	0.0027538561
142	0x3cc8aa59	0.02449529
143	0xbc44bbec	-0.012007695
144	0xbb1c6183	-0.0023861832
145	0xbe5be40d	-0.21473713
146	0x3d6ebe5a	0.058287002
147	0x3d70f16f	0.058824
148	0x3d930b33	0.071798705
149	0x3d295b24	0.041346684
150	0x3e481b32	0.19541624
151	0x3da66a5b	0.081257544
152	0x3d8ef47d	0.06980226
153	0xbda023f6	-0.07819359
154	0xbcbd25c5	-0.023089299
155	0x3e352f4d	0.17693825
156	0x3dec31e1	0.11532951
157	0xbbb69b1c	-0.0055726897
158	0x3da5a694	0.08088413
159	0x3cdd41a6	0.027008843
160	0x3d886793	0.0666038
161	0x3d3b9fd2	0.045806713
162	0xbd678da7	-0.056531575
163	0x3d2fd1f5	0.04292484
164	0x3cd24955	0.025669733
165	0x3cf56aee	0.029958215
166	0x3d02b7f5	0.031913716
167	0xbdc63304	-0.09677699
168	0xbdca05e9	-0.098644085
169	0x3e0baae1	0.13639404
170	0xbd91344c	-0.07090053
171	0xbc30c3e5	-0.010788892
172	0x3e1b07e8	0.15139735
173	0x3de17af4	0.110097796
174	0xbe282c66	-0.16423187
175	0x3df6feb6	0.12060301
176	0x3d90c394	0.070685536
177	0xbce3f14e	-0.027825024
178	0xbd365313	-0.04451282
179	0xbb4276b4	-0.0029672803
180	0xba17466a	-0.00057706854
181	0xbc3b4d88	-0.011432059
182	0xbe16c708	-0.14724362
183	0x3dea2ce1	0.11434341
184	0xbd462010	-0.04837042
185	0xbddaf603	-0.10691454
186	0xbe45e29e	-0.19324729
187	0x3d7d18b6	0.061791144
188	0xbc93f275	-0.018059948
189	0x3d124565	0.03571071
190	0xbe1dbe48	-0.15404618
191	0x3e7b9cfb	0.24571602
192	0xbc14e48e	-0.009087695
193	0x3c434b46	0.011919802
194	0x3d3e9a8f	0.046534117
195	0x3d89d303	0.067297004
196	0x3d63a011	0.055572573
197	0x3d0df0e9	0.034653578
198	0xbd0cadfa	-0.034345604
199	0x3e090323	0.13380103
200	0xbd431153	-0.047623944
201	0x3d92ed90	0.07174218
202	0x3db8c728	0.09022361
203	0xbe5af76e	-0.2138345
204	0x3e431561	0.19051124
205	0xbd5028d3	-0.050820183
206	0xbd879868	-0.06620866
207	0x3d253778	0.040336102
208	0x3e5fca5a	0.21854535
209	0xbe390ffa	-0.18072501
210	0xbe23c78f	-0.15994094
211	0x3d6e6e6f	0.058210786
212	0x3da0e44c	0.07856044
213	0x3da74562	0.081675306
214	0x3e56f557	0.20992027
215	0xbc3ebc07	-0.011641509
216	0xbe932f0c	-0.2874683
217	0x3cb39a38	0.021924123
218	0xbd85b8f4	-0.06529418
219	0xbccd6dd1	-0.025076779
220	0x3d4094d1	0.047016922
221	0x3df267c7	0.118362
222	0x3d78053b	0.060551863
223	0x3d827345	0.06369642
224	0xbcb8ebbb	-0.022573343
225	0xbe15231c	-0.14564174
226	0xbd6a616e	-0.057221822
227	0x3c9dce51	0.019263418
228	0x3e2201e5	0.15821035
229	0xbb5a0d52	-0.00332721
230	0x3da32d75	0.079676546
231	0x3d36fffc	0.04467772
232	0xbd14e6a6	-0.036352776
233	0x3d79e603	0.061010372
234	0x3c83b2c5	0.016076455
235	0x3b1c741a	0.0023872913
236	0x3da16a5f	0.07881617
237	0xbe846606	-0.25859088
238	0x3b403237	0.0029326805
239	0x3bef151e	0.0072962185
240	0xbd8c44c9	-0.06849057
241	0x3d08d442	0.03340555
242	0x3c44d6c8	0.012014098
243	0x3d9514c3	0.072793506
244	0x3d34920b	0.04408459
245	0xbdc526fa	-0.09626575
246	0x3c8bb32d	0.017053211
247	0x3c9c84fa	0.019106377
248	0x3de281d7	0.11059921
249	0x3d3f869e	0.04675924
250	0xbe07f9de	-0.1327891
251	0xbc7fa21f	-0.0156026175
252	0xbd4abd25	-0.04949679
253	0x3df2b4b6	0.11850874
254	0xbd5f36f8	-0.05449578
255	0xbdaa2b16	-0.08308999
