trained_altec/efficientnetb0/block2b_add/block2b_add_rpp_8_8Bits_tensor_weights.npy (npy, 2528 bytes, 1 tensors)

array f4 [25, 24]
-0.18232438 -0.26291937 -0.11952801 0.15271229 -0.26053444 -0.024735691 -0.009205736 0.30772528
0.033606205 -0.28619963 -0.27835044 -0.3338874 -0.33112544 -0.036627777 -0.13977939 -0.021995813
-0.30363023 0.29922685 -0.0120040355 -0.09787081 0.21066828 -0.14172894 0.018644763 0.35983688
-0.06441157 0.09846721 0.14072356 0.08288498 -0.17701706 -0.032986168 0.1663614 0.0635462
0.12977791 -0.16415364 -0.12461113 -0.16157624 0.005376199 -0.004210406 -0.035922572 0.021646295
-0.045166638 -0.024715357 -0.050799735 -0.22441429 0.15365098 -0.1997854 0.26717708 0.14688016
0.6748455 0.508333 -0.16593486 -0.016671514 0.077426 -0.030723695 -0.0724194 0.055485852
-0.030279897 -0.15163511 0.0035068647 0.029787038 -0.013871111 -0.05175925 0.28077376 0.045595925
0.1421772 -0.08699749 -0.105533056 -0.19160856 0.0039231926 -0.06894732 0.19537817 -0.096374996
-0.94102174 -0.85269874 0.6016747 0.2109931 0.2232932 -0.02305569 -0.16421045 -0.47780997
0.025705762 0.60527736 0.03059597 0.33894885 0.2746497 0.17127094 0.7826927 -0.06689551
-0.20922984 -0.3236097 0.11424394 0.94623154 -0.06216304 -0.08822495 -0.012735418 -0.43569064
-0.09803153 -0.22083126 -0.35283607 -0.027543286 -0.037003662 0.002860135 0.7920523 0.8774252
-0.045383446 -0.116719104 -0.78146994 -0.81540126 -0.21694295 0.31047168 -0.96835846 -0.07577791
0.019170243 0.5448875 0.25867504 0.42363685 0.1323128 -0.084142074 0.8590171 0.9793508
0.004968461 0.20160311 -0.12844786 -0.03667191 0.16197278 0.0059282104 0.076422915 0.0076131476
-0.0022053022 -0.5610204 0.2610071 0.03137474 0.025179463 -0.04633537 -0.3460747 0.3196947
-0.22973076 0.08483291 -0.053340003 -0.6373265 -0.10731055 -0.09242378 -0.20518674 0.038054496
0.39284444 0.12589994 0.15455538 -0.13759612 0.3165308 0.0017034657 -0.17070441 -0.10789239
0.0049439194 0.1795002 0.1493481 0.09632435 -0.11033794 -0.25096524 0.3657456 -0.013092301
-0.08598868 -0.0007620645 0.025521351 -0.2125593 0.06786234 -0.029880969 -0.072046004 -0.126714
0.096067525 0.4501444 -0.13740104 0.012194424 0.027451385 -0.008324534 0.009214868 -0.01969795
0.0038724313 0.066757746 0.31401795 0.36005402 0.2827888 -0.033454932 0.29331905 -0.02312761
-0.20364064 -0.31729534 0.23527105 0.05674251 -0.24090075 -0.08346528 -0.41338372 -0.3058797
-0.23408747 -0.19437133 -0.26426518 0.1004806 -0.039338876 -0.11387535 0.17609948 0.03175692
-0.10410298 -0.3178044 0.45075065 0.39402235 0.44175205 -0.033170957 0.12501085 0.041985042
-0.1726809 0.08460658 -0.11224365 -0.18336123 -0.2912632 0.11568694 -0.38436127 -0.0217101
-0.45123923 -0.3095689 0.041918535 0.024194691 -0.34556404 0.11329674 0.31918344 0.39902002
0.29231387 0.2001309 0.097033225 0.079436116 0.06793212 -0.09755074 -0.06912406 0.16113375
-0.06966848 -0.085758775 -0.09503817 -0.0997813 0.16314846 -0.24924457 0.1282931 -0.034406062
-0.43511695 -0.31236026 0.089402154 0.10640668 -0.29753038 0.017679917 0.16142862 0.36336356
0.1808453 0.14662154 -0.46749339 -0.5915522 -0.30617884 0.13926242 -0.3043484 -0.24708065
00000000: 3eb3 3abe 5e9d 86be 1acb f4bd 9c60 1c3e
00000010: c564 85be 81a2 cabc a8d3 16bc 2b8e 9d3e
00000020: a9a6 093d c288 92be f383 8ebe 4af3 aabe
00000030: 4689 a9be 0207 16bd 5422 0fbe 9030 b4bc
00000040: 6c75 9bbe 4334 993e 93ac 44bc 7e70 c8bd
00000050: 6db9 573e 6421 11be e7bc 983c 8a3c b83e
00000060: 37ea 83bd 2da9 c93d d619 103e 9abf a93d
00000070: f643 35be 811c 07bd a55a 2a3e 8324 823d
00000080: 80e4 043e e417 28be 1f34 ffbd 3e74 25be
00000090: d32a b03b 72f7 89bb 8c23 13bd 9253 b13c
000000a0: a700 39bd dc77 cabc 6213 50bd dccc 65be
000000b0: af56 1d3e 8b94 4cbe 6fcb 883e c167 163e
000000c0: adc2 2c3f 1d22 023f d4ea 29be b392 88bc
000000d0: 8691 9e3d 42b0 fbbc 9f50 94bd 2245 633d
000000e0: 8c0d f8bc 3c46 1bbe 6dd3 653b f203 f43c
000000f0: a843 63bc 8201 54bd 94c1 8f3e cbc2 3a3d
00000100: e696 113e bd2b b2bd b721 d8bd 0935 44be
00000110: 208e 803b 4134 8dbd 3711 483e 4160 c5bd
00000120: cde6 70bf 774a 5abf 5a07 1a3f 930e 583e
00000130: f9a6 643e 49df bcbc c926 28be 82a3 f4be
00000140: e494 d23c 75f3 1a3f 66a4 fa3c b48a ad3e
00000150: e39e 8c3e a661 2f3e 8c5e 483f 8300 89bd
00000160: 5940 56be 2cb0 a5be baf8 e93d 3b3c 723f
00000170: ac9e 7ebd 48af b4bd 37a8 50bc d812 dfbe
00000180: c1c4 c8bd 9721 62be eea6 b4be 75a2 e1bc
00000190: 2791 17bd 1a71 3b3b f1c3 4a3f f09e 603f
000001a0: fee3 39bd 6d0a efbd 6a0e 48bf 23be 50bf
000001b0: 4b26 5ebe 25f6 9e3e 57e6 77bf 7331 9bbd
000001c0: ea0a 9d3c bf7d 0b3f 0e71 843e eee6 d83e
000001d0: 027d 073e ae52 acbd 8be8 5b3f bcb6 7a3f
000001e0: 79ce a23b 0c71 4e3e d687 03be 4935 16bd
000001f0: 31dc 253e 6f41 c23b 9e83 9c3d b677 f93b
00000200: d586 10bb 089f 0fbf b9a2 853e cd82 003d
00000210: 2945 ce3c 28ca 3dbd b430 b1be 06af a33e
00000220: 8a3e 6bbe e0bc ad3d 0c7b 5abd d427 23bf
00000230: a2c5 dbbd ae48 bdbd 791c 52be 08df 1b3d
00000240: e822 c93e eaeb 003e c443 1e3e ffe5 0cbe
00000250: 5310 a23e d346 df3a 23cd 2ebe aff6 dcbd
00000260: 9a00 a23b e7ce 373e b5ee 183e b345 c53d
00000270: dcf8 e1bd 847e 80be 0243 bb3e 1781 56bc
00000280: d51a b0bd 48c5 47ba 2712 d13c 25a9 59be
00000290: 69fb 8a3d efc8 f4bc db8c 93bd 51c1 01be
000002a0: 0dbf c43d 5479 e63e dcb2 0cbe 1fcb 473c
000002b0: bae1 e03c a063 08bc f5f9 163c 985d a1bc
000002c0: 9ec8 7d3b 49b8 883d f6c6 a03e 0059 b83e
000002d0: b2c9 903e 0a08 09bd ea2d 963e 1d76 bdbc
000002e0: 2c87 50be 8974 a2be e5ea 703e d66a 683d
000002f0: b0ae 76be d8ef aabd 08a7 d3be 449c 9cbe
00000300: a0b4 6fbe 4709 47be c44d 87be c6c8 cd3d
00000310: cd21 21bd 7b37 e9bd 6c53 343e 8b13 023d
00000320: f133 d5bd 42b7 a2be cac8 e63e 4cbd c93e
00000330: 532d e23e 45de 07bd d802 003e 82f8 2b3d
00000340: 43d3 30be 3746 ad3d 00e0 e5bd 0cc3 3bbe
00000350: 7320 95be 46ed ec3d 00cb c4be 61d9 b1bc
00000360: d408 e7be d17f 9ebe c5b2 2b3d f233 c63c
00000370: c5ed b0be 1f08 e83d 036c a33e 5a4c cc3e
00000380: 2aaa 953e 1def 4c3e 5bb9 c63d 67af a23d
00000390: ff1f 8b3d afc8 c7bd ea90 8dbd 3f00 253e
000003a0: 59ae 8ebd 4ca2 afbd 5fa3 c2bd 235a ccbd
000003b0: 6410 273e f839 7fbe 445f 033e 5fed 0cbd
000003c0: a6c7 debe afed 9fbe 7a18 b73d bfeb d93d
000003d0: e755 98be 79d5 903c 8b4d 253e ca0a ba3e
000003e0: 832f 393e f523 163e 4b5b efbe f76f 17bf
000003f0: 79c3 9cbe cf9a 0e3e 8ed3 9bbe b602 7dbe
