trained_altec/resnet18/add_3/add_3_rpp_4_8Bits_tensor_weights.npy (npy, 66176 bytes, 1 tensors)

array f4 [129, 128]
0.020763876 0.029099243 0.02715049 -0.056741025 0.0067813713 0.03567625 0.0068145064 -0.00857936
0.04544323 -0.0054031205 0.023097431 -0.027150847 0.051993646 -0.059982125 -0.01601819 0.005836956
0.07717754 0.0079720635 0.035736702 -0.029620677 -0.017153729 0.03375984 0.013439749 -0.0030646967
0.044628743 -0.015494697 0.008604563 0.014024381 0.03743728 0.06599413 0.09413026 -0.013432009
0.022327127 0.09349881 -0.29475528 -0.08473775 0.14599217 0.030515308 0.04562711 -0.0134131815
-0.0033321094 0.00046743054 -0.0040623867 0.006872278 -0.046421878 -0.046532802 0.13500305 0.04773293
-0.041238192 0.0431968 0.022931999 0.06552191 0.1705499 0.04635094 0.043953188 0.026748352
-0.075276755 -0.03996386 0.011970207 0.05925013 -0.026982283 0.075721204 0.029981162 0.13617064
-0.022468815 -0.02217023 0.013768602 -0.047825843 -0.06552211 -0.092539646 -0.03216689 0.032387614
-0.00866067 0.07929089 -0.039802223 0.015190718 0.046151295 0.09643175 0.03869263 -0.064014785
-0.012936636 -0.0077857585 -0.007283752 -0.0866554 0.07161246 0.010083319 0.08145351 -0.02385687
-0.05435425 0.02606152 0.03239412 0.03669772 0.013713506 -0.03548363 -0.05189277 0.040301956
0.03255737 -0.072961025 0.019956026 0.028893081 0.009290928 0.0723108 0.0040895366 0.010249089
-0.014513356 -0.052011553 -0.0765944 0.10170235 0.0670111 -0.21152005 -0.028521841 0.051349107
0.027182061 0.035916094 -0.010957956 0.04894548 -0.07011142 0.05541345 -0.11596575 -0.10116481
0.07047801 -0.017797057 -0.026390888 -0.030282734 -0.022748554 -0.027040284 -0.007960294 -0.0044436343
0.022341637 0.0933523 0.08409235 -0.11682867 -0.022115817 -0.0107473275 -0.0046922653 -6.661597e-05
-0.027864756 0.023803184 0.0006651337 -0.056750476 0.06275325 0.0030473615 0.052478965 0.091482036
-0.009685288 0.031480215 0.034519583 0.0020343198 0.10166764 -0.029266162 0.023888381 0.027428757
-0.04689133 -0.051009472 0.015280815 0.0050149118 -0.031951655 -0.025766272 0.021722961 0.00047324295
-0.012938419 0.052139863 0.013367389 0.008966348 0.0279222 0.031813893 0.0126790395 0.018233664
-5.9957907e-05 0.03728115 0.0063753654 -0.039460175 0.038047705 0.058545098 -0.04292403 -0.0031354222
0.0037555066 0.020888643 0.017622707 0.18795764 -0.035821293 0.016595937 -0.04057714 -0.016419744
0.0183282 0.020446768 -0.056832977 -0.03302971 0.07394324 -0.035673805 -0.026145764 -0.060371086
-0.019720722 -0.11586548 0.01765084 0.0088489065 0.103347085 0.11541146 -0.02109486 -0.069516234
0.044405386 0.027031008 0.008454815 -0.0067785447 0.013834866 -0.07030267 -0.01670815 -0.05273904
0.01940589 -0.063379236 0.11542735 -0.041035954 0.028509328 -0.0031187807 -0.033567403 0.039713707
0.07331543 -0.0040473347 -0.00651925 0.022798905 -0.022137566 0.04304414 -0.003224853 -0.0041234563
-0.00266957 -0.060757402 0.11312753 -0.019553306 0.011631605 0.03844017 0.01287735 0.01903463
0.04794106 0.10964456 0.20762695 -0.039123233 0.067605354 -0.030091234 -0.013824568 -0.031476032
-0.019146055 0.0666336 0.017214892 -0.009907495 -0.0010951129 -0.02224087 -0.009798841 -0.012924285
-0.034599405 -0.03421746 -0.13966797 0.006155211 0.16173282 0.057748202 0.16786963 0.023063522
00000000: 0119 aa3c 8961 ee3c b46a de3c 4769 68bd
00000010: 4436 de3b 4221 123d 394c df3b 7290 0cbc
00000020: ae22 3a3d a90c b1bb d336 bd3c 746b debc
00000030: 4af7 543d d1af 75bd 9438 83bc f043 bf3b
00000040: 420f 9e3d 429d 023c a660 123d 10a7 f2bc
00000050: fa85 8cbc c247 0a3d 6532 5c3c 14d9 48bb
00000060: a1cc 363d 78dd 7dbc 27fa 0c3c 84c6 653c
00000070: d557 193d ee27 873d 5ec7 c03d ee11 5cbc
00000080: 61e7 b63c 4e7c bf3d 2aea 96be fc8a adbd
00000090: f97e 153e 3dfb f93c 7ee3 3a3d f6c2 5bbc
000000a0: 855f 5abb 7711 f539 c51d 85bb d930 e13b
000000b0: de24 3ebd 2e99 3ebd 3d3e 0a3e 9b83 433d
000000c0: 61e9 28bd 21ef 303d e3db bb3c 5a30 863d
000000d0: a2a4 2e3e 7cda 3d3d 4208 343d 5c1f db3c
000000e0: b32a 9abd 25b1 23bd b01e 443c 44b0 723d
000000f0: f309 ddbc b813 9b3d 0e9b f53c 5170 0b3e
00000100: 8510 b8bc 589e b5bc b495 613c 08e5 43bd
00000110: 7530 86bd 6d85 bdbd 6ec1 03bd e0a8 043d
00000120: 7ce5 0dbc 4363 a23d a807 23bd 7de2 783c
00000130: 2409 3d3d 027e c53d 2a7c 1e3d 2f1a 83bd
00000140: 2ff4 53bc ad1f ffbb 8aac eebb 6378 b1bd
00000150: 8ea9 923d 8134 253c 19d1 a63d 7c6f c3bc
00000160: 90a2 5ebd f87e d53c b2af 043d 5950 163d
00000170: 9dae 603c 4857 11bd 838d 54bd aa13 253d
00000180: e05a 053d 976c 95bd d27a a33c 2fb1 ec3c
00000190: fa38 183c af17 943d 8501 863b cceb 273c
000001a0: 6dc9 6dbc 110a 55bd 86dd 9cbd 5249 d03d
000001b0: 1e3d 893d b698 58be a3a6 e9bc 7153 523d
000001c0: eaac de3c c11c 133d 0089 33bc 0e7b 483d
000001d0: 9396 8fbd 37f9 623d 737f edbd 7f2f cfbd
000001e0: c656 903d 22cb 91bc b431 d8bc 7f13 f8bc
000001f0: 2d5b babc 9683 ddbc e56b 02bc e89b 91bb
00000200: cf05 b73c 7e2f bf3d 9c38 ac3d df43 efbd
00000210: 3b2c b5bc 8f15 30bc 93c1 99bb 2db4 8bb8
00000220: a144 e4bc e5fe c23c 5e5c 2e3a 3073 68bd
00000230: c784 803d 3eb6 473b 2ff4 563d ef5a bb3d
00000240: 0baf 1ebc 66f1 003d 6864 0d3d 3952 053b
00000250: 2037 d03d 97bf efbc 91b1 c33c 46b2 e03c
00000260: 2011 40bd 4fef 50bd 625c 7a3c 2154 a43b
00000270: bddf 02bd ca13 d3bc 5af4 b13c 981d f839
00000280: aafb 53bc 9c90 553d e502 5b3c 97e7 123c
00000290: 19bd e43c 494f 023d bfbb 4f3c c45e 953c
000002a0: 507b 7bb8 1fb4 183d 71e8 d03b fea0 21bd
000002b0: e9d7 1b3d fccc 6f3d 1cd1 2fbd a87b 4dbb
000002c0: f21e 763b a91e ab3c 7f5d 903c f877 403e
000002d0: 59b9 12bd 34f4 873c 3734 26bd b382 86bc
000002e0: 0525 963c fb7f a73c b2c9 68bd 294a 07bd
000002f0: 8e6f 973d b21e 12bd a42f d6bc ac47 77bd
00000300: 5a8d a1bc e14a edbd 7f98 903c 01fb 103c
00000310: a3a7 d33d d85c ec3d 21cf acbc 875e 8ebd
00000320: 6ce2 353d 2270 dd3c 1086 0a3c 8e1e debb
00000330: a2ab 623c d9fa 8fbd 88df 88bc e404 58bd
00000340: 1af9 9e3c f9cc 81bd 2d65 ec3d 5115 28bd
00000350: 658c e93c 7564 4cbb f97d 09bd d7aa 223d
00000360: 6626 963d 819f 84bb 6f9f d5bb c5c4 ba3c
00000370: d759 b5bc 0d4f 303d 0e58 53bb 0f1e 87bb
00000380: f4f3 2ebb c1dc 78bd 68af e73d 412e a0bc
00000390: 7d92 3e3c 7173 1d3d 85fb 523c 83ee 9b3c
000003a0: d85d 443d 548d e03d 299c 543e af3f 20bd
000003b0: ad74 8a3d e481 f6bc 7180 62bc 03ed 00bd
000003c0: 30d8 9cbc 3277 883d 3f06 8d3c 0c53 22bc
000003d0: e489 8fba 7c32 b6bc 518b 20bc 61c0 53bc
000003e0: 1bb8 0dbd 9b27 0cbd 1f05 0fbe a7b1 c93b
000003f0: 4a9d 253e 6189 6c3d 04e6 2b3e b6ef bc3c
